…
I0920 07:43:54.421624  5768 net.cpp:313] The NetState phase (0) differed from the phase (1) specified by a rule in layer hdf5_test_data
I0920 07:43:54.421645  5768 net.cpp:313] The NetState phase (0) differed from the phase (1) specified by a rule in layer error
I0920 07:43:54.421756  5768 net.cpp:49] Initializing net from parameters: 
name: "CNNFacepoint"
state {
  phase: TRAIN
}
layer {
  name: "hdf5_train_data"
  type: "HDF5Data"
  top: "data"
  top: "landmarks"
  include {
    phase: TRAIN
  }
  hdf5_data_param {
    source: "h5_300w_5/train.txt"
    batch_size: 128
  }
}
layer {
  name: "conv1"
  type: "Convolution"
  bottom: "data"
  top: "conv1"
  param {
    lr_mult: 1
  }
  param {
    lr_mult: 2
  }
  convolution_param {
    num_output: 20
    kernel_size: 4
    stride: 1
    weight_filler {
      type: "xavier"
    }
    bias_filler {
      type: "constant"
    }
  }
}
layer {
  name: "relu1"
  type: "ReLU"
  bottom: "conv1"
  top: "conv1"
}
layer {
  name: "pool1"
  type: "Pooling"
  bottom: "conv1"
  top: "pool1"
  pooling_param {
    pool: MAX
    kernel_size: 2
    stride: 2
  }
}
layer {
  name: "conv2"
  type: "Convolution"
  bottom: "pool1"
  top: "conv2"
  param {
    lr_mult: 1
  }
  param {
    lr_mult: 2
  }
  convolution_param {
    num_output: 40
    kernel_size: 3
    stride: 1
    weight_filler {
      type: "xavier"
    }
    bias_filler {
      type: "constant"
    }
  }
}
layer {
  name: "relu2"
  type: "ReLU"
  bottom: "conv2"
  top: "conv2"
}
layer {
  name: "pool2"
  type: "Pooling"
  bottom: "conv2"
  top: "pool2"
  pooling_param {
    pool: MAX
    kernel_size: 2
    stride: 2
  }
}
layer {
  name: "conv3"
  type: "Convolution"
  bottom: "pool2"
  top: "conv3"
  param {
    lr_mult: 1
  }
  param {
    lr_mult: 2
  }
  convolution_param {
    num_output: 60
    kernel_size: 3
    stride: 1
    weight_filler {
      type: "xavier"
    }
    bias_filler {
      type: "constant"
    }
  }
}
layer {
  name: "relu3"
  type: "ReLU"
  bottom: "conv3"
  top: "conv3"
}
layer {
  name: "pool3"
  type: "Pooling"
  bottom: "conv3"
  top: "pool3"
  pooling_param {
    pool: MAX
    kernel_size: 2
    stride: 2
  }
}
layer {
  name: "conv4"
  type: "Convolution"
  bottom: "pool3"
  top: "conv4"
  param {
    lr_mult: 1
  }
  param {
    lr_mult: 2
  }
  convolution_param {
    num_output: 80
    kernel_size: 2
    stride: 1
    weight_filler {
      type: "xavier"
    }
    bias_filler {
      type: "constant"
    }
  }
}
layer {
  name: "relu4"
  type: "ReLU"
  bottom: "conv4"
  top: "conv4"
}
layer {
  name: "fc1"
  type: "InnerProduct"
  bottom: "conv4"
  top: "fc1"
  param {
    lr_mult: 1
  }
  param {
    lr_mult: 2
  }
  inner_product_param {
    num_output: 120
    weight_filler {
      type: "xavier"
    }
    bias_filler {
      type: "constant"
    }
  }
}
layer {
  name: "relu_fc1"
  type: "ReLU"
  bottom: "fc1"
  top: "fc1"
}
layer {
  name: "fc2"
  type: "InnerProduct"
  bottom: "fc1"
  top: "fc2"
  param {
    lr_mult: 1
  }
  param {
    lr_mult: 2
  }
  inner_product_param {
    num_output: 10
    weight_filler {
      type: "xavier"
    }
    bias_filler {
      type: "constant"
    }
  }
}
layer {
  name: "relu_fc2"
  type: "ReLU"
  bottom: "fc2"
  top: "fc2"
}
layer {
  name: "loss"
  type: "EuclideanLoss"
  bottom: "fc2"
  bottom: "landmarks"
  top: "loss"
  include {
    phase: TRAIN
  }
}
I0920 07:43:54.421838  5768 layer_factory.hpp:77] Creating layer hdf5_train_data
I0920 07:43:54.421852  5768 net.cpp:91] Creating Layer hdf5_train_data
I0920 07:43:54.421860  5768 net.cpp:399] hdf5_train_data -> data
I0920 07:43:54.421880  5768 net.cpp:399] hdf5_train_data -> landmarks
I0920 07:43:54.421902  5768 hdf5_data_layer.cpp:79] Loading list of HDF5 filenames from: h5_300w_5/train.txt
…
I0920 07:44:26.057282  5834 net.cpp:313] The NetState phase (0) differed from the phase (1) specified by a rule in layer hdf5_test_data
I0920 07:44:26.057303  5834 net.cpp:313] The NetState phase (0) differed from the phase (1) specified by a rule in layer error
I0920 07:44:26.057416  5834 net.cpp:49] Initializing net from parameters: 
name: "CNNFacepoint"
state {
  phase: TRAIN
}
layer {
  name: "hdf5_train_data"
  type: "HDF5Data"
  top: "data"
  top: "landmarks"
  include {
    phase: TRAIN
  }
  hdf5_data_param {
    source: "h5_300w_5/train.txt"
    batch_size: 128
  }
}
layer {
  name: "conv1"
  type: "Convolution"
  bottom: "data"
  top: "conv1"
  param {
    lr_mult: 1
  }
  param {
    lr_mult: 2
  }
  convolution_param {
    num_output: 20
    kernel_size: 4
    stride: 1
    weight_filler {
      type: "xavier"
    }
    bias_filler {
      type: "constant"
    }
  }
}
layer {
  name: "relu1"
  type: "ReLU"
  bottom: "conv1"
  top: "conv1"
}
layer {
  name: "pool1"
  type: "Pooling"
  bottom: "conv1"
  top: "pool1"
  pooling_param {
    pool: MAX
    kernel_size: 2
    stride: 2
  }
}
layer {
  name: "conv2"
  type: "Convolution"
  bottom: "pool1"
  top: "conv2"
  param {
    lr_mult: 1
  }
  param {
    lr_mult: 2
  }
  convolution_param {
    num_output: 40
    kernel_size: 3
    stride: 1
    weight_filler {
      type: "xavier"
    }
    bias_filler {
      type: "constant"
    }
  }
}
layer {
  name: "relu2"
  type: "ReLU"
  bottom: "conv2"
  top: "conv2"
}
layer {
  name: "pool2"
  type: "Pooling"
  bottom: "conv2"
  top: "pool2"
  pooling_param {
    pool: MAX
    kernel_size: 2
    stride: 2
  }
}
layer {
  name: "conv3"
  type: "Convolution"
  bottom: "pool2"
  top: "conv3"
  param {
    lr_mult: 1
  }
  param {
    lr_mult: 2
  }
  convolution_param {
    num_output: 60
    kernel_size: 3
    stride: 1
    weight_filler {
      type: "xavier"
    }
    bias_filler {
      type: "constant"
    }
  }
}
layer {
  name: "relu3"
  type: "ReLU"
  bottom: "conv3"
  top: "conv3"
}
layer {
  name: "pool3"
  type: "Pooling"
  bottom: "conv3"
  top: "pool3"
  pooling_param {
    pool: MAX
    kernel_size: 2
    stride: 2
  }
}
layer {
  name: "conv4"
  type: "Convolution"
  bottom: "pool3"
  top: "conv4"
  param {
    lr_mult: 1
  }
  param {
    lr_mult: 2
  }
  convolution_param {
    num_output: 80
    kernel_size: 2
    stride: 1
    weight_filler {
      type: "xavier"
    }
    bias_filler {
      type: "constant"
    }
  }
}
layer {
  name: "relu4"
  type: "ReLU"
  bottom: "conv4"
  top: "conv4"
}
layer {
  name: "fc1"
  type: "InnerProduct"
  bottom: "conv4"
  top: "fc1"
  param {
    lr_mult: 1
  }
  param {
    lr_mult: 2
  }
  inner_product_param {
    num_output: 120
    weight_filler {
      type: "xavier"
    }
    bias_filler {
      type: "constant"
    }
  }
}
layer {
  name: "relu_fc1"
  type: "ReLU"
  bottom: "fc1"
  top: "fc1"
}
layer {
  name: "fc2"
  type: "InnerProduct"
  bottom: "fc1"
  top: "fc2"
  param {
    lr_mult: 1
  }
  param {
    lr_mult: 2
  }
  inner_product_param {
    num_output: 10
    weight_filler {
      type: "xavier"
    }
    bias_filler {
      type: "constant"
    }
  }
}
layer {
  name: "relu_fc2"
  type: "ReLU"
  bottom: "fc2"
  top: "fc2"
}
layer {
  name: "loss"
  type: "EuclideanLoss"
  bottom: "fc2"
  bottom: "landmarks"
  top: "loss"
  include {
    phase: TRAIN
  }
}
I0920 07:44:26.057499  5834 layer_factory.hpp:77] Creating layer hdf5_train_data
I0920 07:44:26.057515  5834 net.cpp:91] Creating Layer hdf5_train_data
I0920 07:44:26.057523  5834 net.cpp:399] hdf5_train_data -> data
I0920 07:44:26.057543  5834 net.cpp:399] hdf5_train_data -> landmarks
I0920 07:44:26.057564  5834 hdf5_data_layer.cpp:79] Loading list of HDF5 filenames from: h5_300w_5/train.txt
I0920 07:44:26.057586  5834 hdf5_data_layer.cpp:93] Number of HDF5 files: 1
I0920 07:44:26.058395  5834 hdf5.cpp:32] Datatype class: H5T_FLOAT
I0920 07:44:26.113821  5834 net.cpp:141] Setting up hdf5_train_data
I0920 07:44:26.113869  5834 net.cpp:148] Top shape: 128 1 39 39 (194688)
I0920 07:44:26.113880  5834 net.cpp:148] Top shape: 128 10 (1280)
I0920 07:44:26.113885  5834 net.cpp:156] Memory required for data: 783872
I0920 07:44:26.113896  5834 layer_factory.hpp:77] Creating layer conv1
I0920 07:44:26.113924  5834 net.cpp:91] Creating Layer conv1
I0920 07:44:26.113932  5834 net.cpp:425] conv1 <- data
I0920 07:44:26.113947  5834 net.cpp:399] conv1 -> conv1
I0920 07:44:26.114460  5834 net.cpp:141] Setting up conv1
I0920 07:44:26.114471  5834 net.cpp:148] Top shape: 128 20 36 36 (3317760)
I0920 07:44:26.114477  5834 net.cpp:156] Memory required for data: 14054912
I0920 07:44:26.114493  5834 layer_factory.hpp:77] Creating layer relu1
I0920 07:44:26.114503  5834 net.cpp:91] Creating Layer relu1
I0920 07:44:26.114508  5834 net.cpp:425] relu1 <- conv1
I0920 07:44:26.114516  5834 net.cpp:386] relu1 -> conv1 (in-place)
I0920 07:44:26.114528  5834 net.cpp:141] Setting up relu1
I0920 07:44:26.114537  5834 net.cpp:148] Top shape: 128 20 36 36 (3317760)
I0920 07:44:26.114542  5834 net.cpp:156] Memory required for data: 27325952
I0920 07:44:26.114547  5834 layer_factory.hpp:77] Creating layer pool1
I0920 07:44:26.114555  5834 net.cpp:91] Creating Layer pool1
I0920 07:44:26.114560  5834 net.cpp:425] pool1 <- conv1
I0920 07:44:26.114567  5834 net.cpp:399] pool1 -> pool1
I0920 07:44:26.114586  5834 net.cpp:141] Setting up pool1
I0920 07:44:26.114593  5834 net.cpp:148] Top shape: 128 20 18 18 (829440)
I0920 07:44:26.114598  5834 net.cpp:156] Memory required for data: 30643712
I0920 07:44:26.114603  5834 layer_factory.hpp:77] Creating layer conv2
I0920 07:44:26.114616  5834 net.cpp:91] Creating Layer conv2
I0920 07:44:26.114629  5834 net.cpp:425] conv2 <- pool1
I0920 07:44:26.114637  5834 net.cpp:399] conv2 -> conv2
I0920 07:44:26.114717  5834 net.cpp:141] Setting up conv2
I0920 07:44:26.114725  5834 net.cpp:148] Top shape: 128 40 16 16 (1310720)
I0920 07:44:26.114730  5834 net.cpp:156] Memory required for data: 35886592
I0920 07:44:26.114740  5834 layer_factory.hpp:77] Creating layer relu2
I0920 07:44:26.114749  5834 net.cpp:91] Creating Layer relu2
I0920 07:44:26.114754  5834 net.cpp:425] relu2 <- conv2
I0920 07:44:26.114760  5834 net.cpp:386] relu2 -> conv2 (in-place)
I0920 07:44:26.114768  5834 net.cpp:141] Setting up relu2
I0920 07:44:26.114774  5834 net.cpp:148] Top shape: 128 40 16 16 (1310720)
I0920 07:44:26.114779  5834 net.cpp:156] Memory required for data: 41129472
I0920 07:44:26.114785  5834 layer_factory.hpp:77] Creating layer pool2
I0920 07:44:26.114794  5834 net.cpp:91] Creating Layer pool2
I0920 07:44:26.114799  5834 net.cpp:425] pool2 <- conv2
I0920 07:44:26.114805  5834 net.cpp:399] pool2 -> pool2
I0920 07:44:26.114814  5834 net.cpp:141] Setting up pool2
I0920 07:44:26.114820  5834 net.cpp:148] Top shape: 128 40 8 8 (327680)
I0920 07:44:26.114825  5834 net.cpp:156] Memory required for data: 42440192
I0920 07:44:26.114830  5834 layer_factory.hpp:77] Creating layer conv3
I0920 07:44:26.114842  5834 net.cpp:91] Creating Layer conv3
I0920 07:44:26.114847  5834 net.cpp:425] conv3 <- pool2
I0920 07:44:26.114856  5834 net.cpp:399] conv3 -> conv3
I0920 07:44:26.115056  5834 net.cpp:141] Setting up conv3
I0920 07:44:26.115064  5834 net.cpp:148] Top shape: 128 60 6 6 (276480)
I0920 07:44:26.115069  5834 net.cpp:156] Memory required for data: 43546112
I0920 07:44:26.115079  5834 layer_factory.hpp:77] Creating layer relu3
I0920 07:44:26.115087  5834 net.cpp:91] Creating Layer relu3
I0920 07:44:26.115092  5834 net.cpp:425] relu3 <- conv3
I0920 07:44:26.115100  5834 net.cpp:386] relu3 -> conv3 (in-place)
I0920 07:44:26.115108  5834 net.cpp:141] Setting up relu3
I0920 07:44:26.115114  5834 net.cpp:148] Top shape: 128 60 6 6 (276480)
I0920 07:44:26.115128  5834 net.cpp:156] Memory required for data: 44652032
I0920 07:44:26.115134  5834 layer_factory.hpp:77] Creating layer pool3
I0920 07:44:26.115140  5834 net.cpp:91] Creating Layer pool3
I0920 07:44:26.115145  5834 net.cpp:425] pool3 <- conv3
I0920 07:44:26.115154  5834 net.cpp:399] pool3 -> pool3
I0920 07:44:26.115162  5834 net.cpp:141] Setting up pool3
I0920 07:44:26.115169  5834 net.cpp:148] Top shape: 128 60 3 3 (69120)
I0920 07:44:26.115173  5834 net.cpp:156] Memory required for data: 44928512
I0920 07:44:26.115178  5834 layer_factory.hpp:77] Creating layer conv4
I0920 07:44:26.115197  5834 net.cpp:91] Creating Layer conv4
I0920 07:44:26.115202  5834 net.cpp:425] conv4 <- pool3
I0920 07:44:26.115209  5834 net.cpp:399] conv4 -> conv4
I0920 07:44:26.115382  5834 net.cpp:141] Setting up conv4
I0920 07:44:26.115391  5834 net.cpp:148] Top shape: 128 80 2 2 (40960)
I0920 07:44:26.115396  5834 net.cpp:156] Memory required for data: 45092352
I0920 07:44:26.115403  5834 layer_factory.hpp:77] Creating layer relu4
I0920 07:44:26.115411  5834 net.cpp:91] Creating Layer relu4
I0920 07:44:26.115416  5834 net.cpp:425] relu4 <- conv4
I0920 07:44:26.115422  5834 net.cpp:386] relu4 -> conv4 (in-place)
I0920 07:44:26.115429  5834 net.cpp:141] Setting up relu4
I0920 07:44:26.115435  5834 net.cpp:148] Top shape: 128 80 2 2 (40960)
I0920 07:44:26.115440  5834 net.cpp:156] Memory required for data: 45256192
I0920 07:44:26.115445  5834 layer_factory.hpp:77] Creating layer fc1
I0920 07:44:26.115458  5834 net.cpp:91] Creating Layer fc1
I0920 07:44:26.115463  5834 net.cpp:425] fc1 <- conv4
I0920 07:44:26.115470  5834 net.cpp:399] fc1 -> fc1
I0920 07:44:26.115803  5834 net.cpp:141] Setting up fc1
I0920 07:44:26.115813  5834 net.cpp:148] Top shape: 128 120 (15360)
I0920 07:44:26.115818  5834 net.cpp:156] Memory required for data: 45317632
I0920 07:44:26.115830  5834 layer_factory.hpp:77] Creating layer relu_fc1
I0920 07:44:26.115838  5834 net.cpp:91] Creating Layer relu_fc1
I0920 07:44:26.115842  5834 net.cpp:425] relu_fc1 <- fc1
I0920 07:44:26.115854  5834 net.cpp:386] relu_fc1 -> fc1 (in-place)
I0920 07:44:26.115861  5834 net.cpp:141] Setting up relu_fc1
I0920 07:44:26.115869  5834 net.cpp:148] Top shape: 128 120 (15360)
I0920 07:44:26.115874  5834 net.cpp:156] Memory required for data: 45379072
I0920 07:44:26.115878  5834 layer_factory.hpp:77] Creating layer fc2
I0920 07:44:26.115886  5834 net.cpp:91] Creating Layer fc2
I0920 07:44:26.115891  5834 net.cpp:425] fc2 <- fc1
I0920 07:44:26.115898  5834 net.cpp:399] fc2 -> fc2
I0920 07:44:26.115922  5834 net.cpp:141] Setting up fc2
I0920 07:44:26.115929  5834 net.cpp:148] Top shape: 128 10 (1280)
I0920 07:44:26.115934  5834 net.cpp:156] Memory required for data: 45384192
I0920 07:44:26.115942  5834 layer_factory.hpp:77] Creating layer relu_fc2
I0920 07:44:26.115948  5834 net.cpp:91] Creating Layer relu_fc2
I0920 07:44:26.115953  5834 net.cpp:425] relu_fc2 <- fc2
I0920 07:44:26.115959  5834 net.cpp:386] relu_fc2 -> fc2 (in-place)
I0920 07:44:26.115965  5834 net.cpp:141] Setting up relu_fc2
I0920 07:44:26.115972  5834 net.cpp:148] Top shape: 128 10 (1280)
I0920 07:44:26.115977  5834 net.cpp:156] Memory required for data: 45389312
I0920 07:44:26.115981  5834 layer_factory.hpp:77] Creating layer loss
I0920 07:44:26.115995  5834 net.cpp:91] Creating Layer loss
I0920 07:44:26.116001  5834 net.cpp:425] loss <- fc2
I0920 07:44:26.116006  5834 net.cpp:425] loss <- landmarks
I0920 07:44:26.116014  5834 net.cpp:399] loss -> loss
I0920 07:44:26.116029  5834 net.cpp:141] Setting up loss
…
